creditcard_model.pth (torch, 9580 bytes, 8 tensors)

encoder.0.weight f4 [16, 29]
00000000: 42e8 3bbe b0b1 1dbe 5df7 39bd a0a5 3a3d
00000010: 7c76 cc3d 9e85 7c3e 3317 10bd 7875 833d
00000020: 11cc 003d 793b 9b3d c6cb efbc 3ec5 07be
00000030: 4f69 3b3d ceda af3c 33c7 80bc 5392 0dbd
00000040: 463c ab3d 7813 ccbd d176 3cbe f4a8 c63d
00000050: 7884 8d3d 95b3 c93d 351f b43b fd68 cdbd
00000060: d4f4 06be 8c74 7a3d 9fa7 323c d0cf b73c
00000070: 9fe0 3f3e 05c6 cdbe 7b9c c4bd 2ac0 8d3c
00000080: 6411 59bc 6483 eb3d 10f6 d73d 8cc6 953d
00000090: ef35 bdbb 9150 3ebe 5755 d43d 5b80 793d
000000a0: eee3 0ebe 0e06 1bbd 07fd 913d e7c4 d33c
000000b0: 711b 42bd de7d c1bc fdc1 663e e983 a5bd
000000c0: e119 fcbd c73b b7bc 2650 b03c a68e c3bd
000000d0: 1d43 11bd 9d9d 92bd 3f91 88bd 13c1 923c
000000e0: f2b0 01bd 2c56 0a3e 6588 00be 6354 27be
000000f0: fc50 ab3d 3910 d6bd 663e f4bd c4d9 083e
00000100: 1147 a7bd 4f8a aa3c e612 c6bd 5466 d23d
00000110: dc20 e03c 961c 52be 4cdd 18be f72e 4fbd
00000120: 909f 83bd dd9b 9abc cf19 593e 1789 edbd
00000130: 0015 1a3e 88d8 04bd dfa4 9ebc 6913 153d
00000140: 8be5 2ebd c2e4 913d d6a7 23bd ee59 0abe
00000150: e4e7 683d d6b0 7cbc 3190 de3d f334 b0be
00000160: 610f f1bd c25b afbd 77e9 a2bc 5a02 48bd
00000170: 13dd 043d 15fc 473e 1abc e5bd 624f 90bd
00000180: 713a b73d 35f9 35be a473 94bd 4295 bf3d
00000190: 43d3 86bd 588b 77bd b89a 663b 57b2 133d
000001a0: f930 98bd eb17 743d 5ae2 ccbc defd 92bc
000001b0: 66c2 d73d db1f 25be 73e8 ccbd 43a0 bb3d
000001c0: 6234 0a3e 9f2d 893d fcf3 bfbc bcc5 893e
000001d0: 03c0 a3be 31f1 0abe 0196 0cbe 5eef 1b3e
000001e0: fcb2 913e e28b 203e 7797 75bb 0435 c1bc
000001f0: 1cd6 4a3d e07a f73d e55b 9ebc c91c 97bd
00000200: 123f b2bd ae5f 983d d5a5 fd3d 0ca9 b5bd
00000210: f886 d13d 8de6 18be 9218 013e 584e 6f3c
00000220: 3f75 03bd 2a98 46bc 2e23 febd 373b ad3d
00000230: 5bda fd3d cf29 c13d 6bbd c53c b53e 4dbc
00000240: 4bd3 d63d a171 8cbe 61f6 fdbd d910 5d3d
00000250: 8f8a 0bbe a6be fd3d 63d1 0f3e 50d7 1ebd
00000260: 58d2 ec3b fc90 1d3e 3bf7 f8bc 813d 1a3e
00000270: 734a e4be 0cd3 a83e bcae 293e 2de3 60bd
00000280: 20f6 db3d b7f4 ea3d 9e25 a73c 54a4 7a3d
00000290: 5870 aa3d 6f74 5e3a 7684 33bd 34d4 42bc
000002a0: ca53 1e3d 562e 993d 3f32 ae3d b4bc e13c
000002b0: 5d02 83bc 5e94 e93d 35a2 91be 640c 87be
000002c0: 5575 b7bc 12c1 07be 9e7d e93c 75d8 f9bd
000002d0: 62c6 583d e79d 21bd 7f77 55bd 2807 ee3c
000002e0: 272f 33bd f1bc 83bd 8df2 b9bd 0861 92bb
000002f0: fbbf 483d 25a2 56bd d141 cb3c 315e 11bd
00000300: e93e b3bd d362 403e 0305 f1bc 2610 8cbe
00000310: ec72 56bc 58a1 c2bc 6c2a 84bc 3dab b03d
00000320: 1aea 9abc f524 0f3c 4554 913e ca0e 00be
00000330: f398 76be 5a35 16be a32c b23c baad 5dbd
00000340: 2803 9a3e 7507 9e3d 15a0 95bc c6e4 ca3d
00000350: 5470 2a3b bcca bc3d 1098 28bc 90e9 ff3c
00000360: 3961 2f3d af9e 1ebd fd24 10be 94f6 8b3b
00000370: ee3a 283e 80ec 633b 1949 433d b8c9 11bd
00000380: ab52 97bd 5e2a a2bd 122d e33d 1002 ff3c
00000390: a7f4 d9bc 1e0c 203d cae6 f3bb 669a b53e
000003a0: cb13 b2be 7e49 1ebe b16b cc3d 94a0 de3d
000003b0: 01c7 adbb 6eff 003c 1a46 74bd 1e41 c3bc
000003c0: a41b c73c f0b6 5c3e 2564 763e f349 033e
000003d0: 8bca 853d d956 d5bc 12f2 d7bd c720 a7bd
000003e0: 0c8b ec3c 07c9 873c bc41 9a3d 2ea1 de3d
000003f0: 1065 84bc b4ad a73c 950f 16bd 50b9 bbbd
-0.18350318 -0.15399814 -0.04540192 0.04556811 0.099835366 0.24660346 -0.035178374 0.0641889
0.031444613 0.07579703 -0.029271971 -0.13258836 0.045754727 0.021466639 -0.015719986 -0.034563374
0.083611056 -0.09964651 -0.184047 0.09700194 0.06910032 0.09848706 0.005496884 -0.100297906
-0.13179332 0.061146304 0.010904222 0.02243796 0.1873803 -0.4019014 -0.09600159 0.017303545
-0.013248775 0.1149967 0.105449796 0.073132604 -0.0057742517 -0.18585421 0.1036784 0.060913425
-0.13954136 -0.03784757 0.07128339 0.025850726 -0.04738945 -0.023619588 0.22534938 -0.080818005
-0.123096235 -0.022367371 0.021522593 -0.095486924 -0.035464395 -0.071589686 -0.066683285 0.01791433
-0.03166289 0.13509434 -0.1255203 -0.16340785 0.08365056 -0.10452313 -0.11925964 0.13364321
-0.08167852 0.020817904 -0.09671573 0.10273424 0.027359419 -0.20518717 -0.14928168 -0.0505819
-0.064269185 -0.01887315 0.21201251 -0.115984134 0.15047073 -0.032433063 -0.019365726 0.036395464
-0.042699378 0.0712371 -0.039954983 -0.13510868 0.056861773 -0.01542302 0.10867346 -0.34415397
-0.117705114 -0.08562423 -0.019886715 -0.048830368 0.032437395 0.19529755 -0.11217518 -0.07046391
0.08946694 -0.17770846 -0.07248619 0.093546405 -0.06583264 -0.060435623 0.0035187434 0.03605875
-0.07431216 0.059593122 -0.025010277 -0.017943319 0.105351254 -0.16125433 -0.10005274 0.09161427
0.13496545 0.06698155 -0.02343177 0.26908672 -0.3198243 -0.1356857 -0.13729097 0.1522803
0.28456867 0.15678361 -0.0037474313 -0.02358485 0.049520597 0.120839834 -0.019330928 -0.07378537
-0.08703436 0.074401245 0.123851456 -0.08870134 0.10230821 -0.14931698 0.12607029 0.014606081
-0.032094236 -0.01212124 -0.12409054 0.0845856 0.123951636 0.094318025 0.024138173 -0.012527158
0.1048952 -0.27430442 -0.12400509 0.053971145 -0.13627075 0.12389879 0.14044718 -0.038779557
0.0072272234 0.15387338 -0.030391326 0.15062524 -0.4458805 0.32973516 0.16570562 -0.05490415
0.10740304 0.11472457 0.02040368 0.06119187 0.08322209 0.0008485978 -0.043827496 -0.0118914135
0.038654126 0.07479541 0.085056774 0.027555801 -0.015992338 0.11405252 -0.28444067 -0.2637664
-0.022394815 -0.13257244 0.028502282 -0.12199489 0.052923568 -0.039457228 -0.052115913 0.029056147
-0.04374614 -0.06432522 -0.09079466 -0.0044671334 0.04901121 -0.052400727 0.024811657 -0.03549022
-0.087522335 0.18787698 -0.029421335 -0.2735607 -0.013088923 -0.023758575 -0.01613351 0.08626411
-0.018910456 0.008736839 0.28384605 -0.12505642 -0.24081783 -0.1466879 0.0217498 -0.054120757
0.30080533 0.07716266 -0.01826481 0.09906916 0.0026006894 0.09218356 -0.010290161 0.031239301
0.042817328 -0.03872555 -0.1407661 0.0042713378 0.1642873 0.0034778416 0.047677133 -0.035592765
-0.073888145 -0.07918237 0.11092581 0.031128913 -0.026605917 0.039074056 -0.0074432837 0.3546936
-0.34780726 -0.15457723 0.09981478 0.108704716 -0.005303264 0.007873399 -0.059637167 -0.023834761
0.024305172 0.2155416 0.2406164 0.12821178 0.06532773 -0.026042389 -0.10544218 -0.08160549
0.028874896 0.01657535 0.07532069 0.10870586 -0.016161472 0.02046857 -0.036635954 -0.09166205

encoder.0.bias f4 [16]
00000000: 5999 af3f e522 c93f da0b a83f f507 ce3f
00000010: 0d4a d73f 3057 a13f d2ce b93f 8fcf ad3f
00000020: 55d8 b13f 5a50 9b3f 0ba8 bd3f 159a b83f
00000030: 0fba 9c3f 9140 c13f fd06 ae3f 299b c83f
1.3718673 1.5713774 1.3128617 1.6096178 1.6819474 1.2604733 1.4516242 1.3578967
1.3894144 1.2133896 1.4816908 1.4422022 1.224428 1.5097829 1.3595883 1.5672351

encoder.3.weight f4 [16, 16]
00000000: 4fb5 5e3f d15f 22be 4998 9c3e a71e 333e
00000010: 0e46 913d d03b e83c ce47 e03c 995b 8bbd
00000020: 5c48 693d c2e9 173d 8e53 383d 4955 d1be
00000030: 0e4f d63e a49c ecbe 3158 dc3e fe06 c23d
00000040: e42b 1f3e ee72 a83c f77c 513e 8254 d0be
00000050: 776f 40be be29 743d ad2a c03e 9f02 e4bd
00000060: dee6 2a3e bb70 db3e b357 a03e 8202 c0bd
00000070: 38a2 c7be d494 6f3e 45d2 b63e fb22 de3e
00000080: d5a1 47be 4156 3a3e 7e14 80bd 920e 37be
00000090: ca67 153e 156e dfbc 1a26 35be 57da 5c3e
000000a0: 4c09 893e 3f64 663e 8c7e 94be fe92 60be
000000b0: 9568 e93e 4b11 013e ca4a c83e f778 fe3e
000000c0: ed71 543d 69ae 173f 255e 24bd bbe8 e03e
000000d0: b7c2 e4bd b3ef 8e3e 2100 80be a4bb 8bbe
000000e0: b7b5 88bd ecb5 17be cb3e 3abe 1c3e 423c
000000f0: 42d1 21be 546f 313e f7a3 453e b93f e73e
00000100: b801 9bbe 45b5 593e 145e c23d e674 a73d
00000110: aa9a 9d3d ec12 42be 8266 c83e 7a11 b23c
00000120: 17a1 52be 33f6 233d a9c4 8b3e ac9e 38be
00000130: cf9c 8e3e c4e8 1abe c0c5 c23d a0f5 0a3f
00000140: bd8b b63e b346 0d3e 6364 1ebe 189a ab3e
00000150: 955a 92be e7c9 bbbd 393f cd3e 62e1 833e
00000160: 7564 fabd e0b4 4c3e e15c 87be 152e 98be
00000170: 1d9e b93d 3be6 a63e 6194 7d3e fdfb 14be
00000180: 13f8 0a3e 15f6 44bd 7bcb a43d 36a1 10be
00000190: 9ae6 563d 9f3d 8a3e 0c18 96bd 42b0 f53e
000001a0: 3fdf a4be 6077 5f3d 9e5a 10be 0040 493e
000001b0: 0b8e b93d 43bf 2d3e 797e edbe 79dd 183f
000001c0: 668e 043e d5c8 6abe ea61 80bc 7593 3c3d
000001d0: 3acb 2fbe f5d4 093d 161b 4ebc e6f2 bcbd
000001e0: afea 15be 22fb 0a3d e4bc debd 0045 2c3f
000001f0: cc76 c43e 3f13 613e 41bb a23e cbc3 093e
00000200: 5e23 5dbc a52d 003f e5fc 653e 2206 d3be
00000210: 90f1 963e 0511 9d3e 3d98 8a3e 1b9a 893e
00000220: 5a9b d8bc 093c f6be 725c 6b3c 04fc 0e3e
00000230: b865 ac3c 9f1e 153e 3b67 b03e 988d a8be
00000240: 8c3f 25be 5c95 82be 4c4d eabe d71d 303e
00000250: 83cf 063f 211c 883e 833c ca3e 158c 223e
00000260: 5ad7 593e 482e 393e 25e2 283c cc82 5a3d
00000270: 61e5 83be e3d4 7ebe c847 a03e 637a 823e
00000280: b61c a7bd 6c8f e53e 6d7f a23e 51d5 e13d
00000290: fb58 373d 6b4a 28be 70f1 9abe 87d4 a83e
000002a0: 92f6 ca3b 8452 a03e 0532 473d 0fda b63e
000002b0: 6562 58be 972d bbbe f995 703e ef2a 903c
000002c0: e245 23be 205f 4d3e 88b8 823e da45 ef3d
000002d0: 5e62 e8be 6f46 343e 0bcd be3e c0c6 08bd
000002e0: 1795 113f d33b 323e 807d 1abe e773 343e
000002f0: 2f95 c13e ee41 59be 83f3 bbbe 70ac 34bc
00000300: 4d82 3bbe 31bf 833e dc48 60be 2e06 d1bc
00000310: cbe4 1bbe 6ae7 c73e 2b70 d0bd ba61 123e
00000320: 61bb 75be c111 ba3e a10e c03e 9f69 f5bd
00000330: ef78 ce3e dc36 e23c 9b67 2e3e 4b1f 68be
00000340: fb6b 753e 6086 c93c 5845 a4be 4ac1 c7bc
00000350: 65f1 84be e971 70be 0876 76be 9743 a63e
00000360: d84c ab3e b3d2 2ebe f6f7 283f 04e4 243e
00000370: 83ce 423d 71ed 523e d2cc f23d 06e2 a53e
00000380: 98a1 a83e 526b 0a3f d2af 63bd 6c77 bdbd
00000390: 7948 083f 059a b9be 3b93 9d3d 6a69 21be
000003a0: a19f 9abd 1c57 d23e df06 92bc 8547 c13c
000003b0: 243e 473e d732 3d3e 74c2 e3be 0612 76bd
000003c0: 2d19 aebe a434 6dbe a876 013f 42fc be3e
000003d0: ba93 663e bc4c 893c c75b b6be 0da8 8c3d
000003e0: 46c6 653e 1422 413e 48c0 5f3e 37db 65be
000003f0: 8182 f2bc fccf dd3e f1aa cbbd f0a5 033d
0.86995405 -0.15856864 0.30584934 0.17492162 0.0709344 0.028348833 0.02737799 -0.0680458
0.056953773 0.037088163 0.04500156 -0.4088538 0.4185719 -0.46213257 0.43036035 0.0947399
0.15544087 0.020562615 0.20457827 -0.40689474 -0.1879252 0.05961012 0.3753256 -0.111333124
0.16689631 0.42859444 0.3131691 -0.09375478 -0.3899095 0.23396617 0.35707298 0.43386063
-0.19495328 0.18196966 -0.062539086 -0.17876652 0.14590374 -0.02727417 -0.17690316 0.21567665
0.26764905 0.22499178 -0.29002798 -0.21931073 0.45587602 0.12604253 0.3911956 0.49701664
0.05186646 0.59250504 -0.040128846 0.4392756 -0.111699514 0.2791725 -0.25000098 -0.27291596
-0.06675284 -0.14815491 -0.18188016 0.011855628 -0.15802482 0.17327625 0.19300829 0.45165804
-0.3027475 0.21260555 0.094906 0.081765935 0.076955155 -0.1895253 0.39140707 0.02173685
-0.20569263 0.040029716 0.27298477 -0.18029279 0.2785401 -0.15127856 0.09510374 0.54281044
0.35653487 0.13796501 -0.15467982 0.33516002 -0.28584734 -0.09169369 0.40087298 0.2575789
-0.12226192 0.19990873 -0.26438048 -0.29722658 0.09063361 0.32597527 0.24763633 -0.14549251
0.13571195 -0.048086245 0.08046623 -0.14123997 0.052466013 0.27000138 -0.07328805 0.47986037
-0.32201573 0.054557204 -0.14097068 0.1965332 0.09060296 0.16967492 -0.46385553 0.5971294
0.12944946 -0.22928174 -0.015671689 0.046039063 -0.17167369 0.033650357 -0.0125797 -0.09226017
-0.14640306 0.033930905 -0.10875872 0.67292786 0.38371885 0.21979998 0.31783488 0.13453595
-0.013497202 0.5006965 0.22459753 -0.41215616 0.29481173 0.30677047 0.27069274 0.26875386
-0.026441265 -0.48092678 0.014365302 0.13963324 0.021044597 0.14562462 0.3445376 -0.32920527
-0.16137522 -0.25504577 -0.45762098 0.17198883 0.5266039 0.2658396 0.39499292 0.1587375
0.21273556 0.18084061 0.010307823 0.053347394 -0.2576094 -0.24885897 0.31304765 0.25484
-0.08159773 0.44835985 0.31737843 0.11027015 0.044762593 -0.16434638 -0.30262327 0.32974645
0.0061939443 0.31312954 0.048631687 0.3571324 -0.21131285 -0.3655822 0.2349471 0.017598597
-0.15944627 0.20055819 0.2553141 0.11683245 -0.45387548 0.17604993 0.3726581 -0.033392668
0.5686812 0.17405634 -0.15086937 0.17622338 0.3780913 -0.21216556 -0.36709222 -0.01102744
-0.18311425 0.25731805 -0.21902794 -0.025515642 -0.15223996 0.39043742 -0.10177644 0.14295092
-0.2399726 0.3634167 0.3751116 -0.11983036 0.4032664 0.02761405 0.1703171 -0.22668187
0.23966973 0.024600208 -0.32084155 -0.02438416 -0.2596542 -0.23480953 -0.24068463 0.32473442
0.33457065 -0.17072563 0.6600336 0.16102606 0.047560226 0.20598389 0.118554726 0.32399005
0.32935786 0.5407001 -0.055587597 -0.092512935 0.53235584 -0.3625032 0.076940976 -0.15762869
-0.07549978 0.41082084 -0.017825542 0.023593673 0.19457299 0.18476425 -0.44484293 -0.060075782
-0.34003583 -0.23164612 0.5057168 0.37301832 0.2251729 0.016760223 -0.35616896 0.06867991
0.22438917 0.18860656 0.21850693 -0.22446905 -0.029603245 0.43322742 -0.09944714 0.032140672

encoder.3.bias f4 [16]
00000000: ebd0 79be 0c73 67be fd79 473e 4a7e 943d
00000010: af54 b23d 50ce 633d c818 da3e 4d4e 49be
00000020: b556 21be 1714 e23c d3a3 7e3e 26b7 f63d
00000030: d760 db3e b6d1 343e 3f38 a43d ee60 893c
-0.24396102 -0.2260248 0.19480129 0.0725065 0.08707558 0.055616677 0.42597032 -0.19658776
-0.15755732 0.02759747 0.24867181 0.120466515 0.4284732 0.17658123 0.080185406 0.016769852

decoder.0.weight f4 [16, 16]
00000000: e118 9d3e 4049 0a3e fc2a e23e 3a8b e2be
00000010: 9be5 aa3d fa1a 843e e5aa aa3e c9b5 b0be
00000020: 527c 263e 0958 88be f2e2 d7bd b7a3 863e
00000030: 359b c8be d5e1 95bd 76b0 b43c e36a 4c3e
00000040: 7110 b8be a612 893e ca27 013e b14c bf3e
00000050: 2af5 ba3e 10c2 3a3d 2e18 be3e 2109 083e
00000060: 5bf4 95bd 70d0 cd3d 4ed3 c6bd 4ead 45be
00000070: b446 93bd 51eb e83d d019 88be d024 c53d
00000080: 592d 7b3d 587c 503e c24e 85be 316e a6be
00000090: f952 f9be 8e4f f73d 28b4 0d3e ff1b 7e3e
000000a0: 7368 b63d f791 8f3e 7a47 d9be bbec 853d
000000b0: be0a 9c3e 92aa b53e fbbb 533e 261c 2d3e
000000c0: 83ce 863e 0d74 0e3e 55a0 bbbe a042 d43e
000000d0: 30e1 973d 6f08 63be c127 0e3e 688a 9cbe
000000e0: 981c 143d 401b b03d 4e46 e5be fb2c c13e
000000f0: a6d0 a93e aa0c 54be e06b 1cbe 3850 a53e
00000100: a61a b33e da3d 813e 0f22 f5be 720c 28be
00000110: 2dfe 1e3f ef46 09ba 9c8d a73d e694 c6bd
00000120: 0f1c 69be 9d59 7e3e 531b 903e 6008 dabe
00000130: 555e 45be b1bf d8bd 8ab1 483e 2a83 343e
00000140: 158b 233e 759e 3b3d 6459 0cbe 719d ef3d
00000150: 968d ebbd efe2 f13e ca4f 9a3e f27a 14bf
00000160: 0e29 e43d 557e 2e3e 1dd5 073e e540 9dbd
00000170: a5e6 7b3e 9242 173e 5d1d dbbd da32 d9be
00000180: 4c20 b43e 87c4 dd3e 60ae f5bd 4609 9c3e
00000190: db58 1cbf 6915 13be a7d0 ea3d 3940 503d
000001a0: 0aea b3bd c0f9 93be 9a71 7b3e 8490 c93d
000001b0: 66e1 69bd 8658 563e 79fa 65bc 99e2 f93d
000001c0: c8ac a93c 5c8f 8ebd 96a6 d83e ebe2 5bbe
000001d0: f630 b23c 77de 4c3d 6cd8 67be 071d 2ebe
000001e0: c55f aebd fe2e 7a3e 9d9b 133f 0a82 943d
000001f0: 861a ca3e 7e28 a4bd c08a b1be 0d7d 6a3e
00000200: 9226 06be b0b1 64bd bc89 4d3e 2104 283e
00000210: cbb0 a3be ae82 ed3d 1a14 b63e 49bf f43d
00000220: 7b67 80be 73c2 523d e585 ce3d 869b 63be
00000230: ab69 943e 9dde adbe e2bb f83e 932e f93b
00000240: f86e 073e 27fd e6bd 0309 b23d ba88 e13e
00000250: 4319 a4be 2031 083f fc39 43be 1468 973d
00000260: b473 97bd 8b72 de3e 5c20 40bd 9226 c23d
00000270: 5f1f f5be f559 ec3c 7a32 513d 5255 503e
00000280: 5d56 1a3e e374 78be 0ad7 32be c7c9 123e
00000290: 031e 5b3e 82c5 623e 632e 133e acf6 863e
000002a0: a42c 0f3f 2c55 8dbe 1e92 c53d f497 44be
000002b0: 89c8 9e3d 20e2 b0bd ac12 76bd e0c8 623e
000002c0: a5e8 58be 2a7d 8d3e 739d b8be 7a2b 20be
000002d0: b47b 843a 7377 373e d05f 183e 5e98 a53e
000002e0: 233d 3a3d 8e0f f53d 7eba e43e 7d4b eb3e
000002f0: cd67 2ebe bc45 6fbe e88b 803d c9b7 3dbe
00000300: 68bd 89be ddff 6abe 81ed 03be d6be ba3d
00000310: 4c59 c13d d8c8 033e 4935 bcbc 89cd 2abf
00000320: caf3 05bd f9ba df3b 741c 773e 6882 903e
00000330: 926a e73c 0233 c83e 8b0d c73e ffa6 923e
00000340: 6518 833e a72b 3cbe 1155 903d a59d 733d
00000350: 8ecf 013f 3626 303d 15ba 8abd 8e11 8b3e
00000360: 51ea b0be f2e0 72be 080e 2ebd 413a 783e
00000370: 8dd3 583e 4981 3f3e 437c 5b3c 195e 14be
00000380: cd36 d03d bfd3 d93e f24d b53e afc9 723e
00000390: 2f47 fbbc a3a4 01be d4a7 f8be 6066 11be
000003a0: cbb0 cc3e 681c 8ebc fbc7 c2bd 04ed a33c
000003b0: 993e 393d 62cb 6f3c d52e b03e 52e1 6cbe
000003c0: e435 b13e 606b a3be 63e3 033e 74fc 9f3b
000003d0: e852 26be cc76 e4be 7c97 c53e 0699 60bd
000003e0: 865a 223e 57fd bf3e b3fa e83d fa54 2a3e
000003f0: 1695 49be b3ca 413e 6b63 9f3d 2351 90be
0.30683044 0.13504505 0.4417342 -0.44246846 0.08344575 0.2580183 0.33333507 -0.3451369
0.16258362 -0.26629665 -0.10541333 0.2629678 -0.39180914 -0.07318465 0.0220568 0.19962649
-0.35950044 0.2677204 0.12612835 0.37363198 0.3651517 0.04559523 0.37127823 0.13284732
-0.07321998 0.10049522 -0.09708272 -0.19304392 -0.0719122 0.11373008 -0.26582193 0.09626162
0.061322544 0.20359933 -0.2603665 -0.32505944 -0.48696116 0.12075721 0.13838255 0.24815367
0.08906641 0.2804105 -0.42437345 0.065392934 0.30476946 0.35481697 0.20677178 0.16905269
0.2632943 0.13911457 -0.3664576 0.4145708 0.07415998 -0.22171186 0.13882352 -0.30574346
0.03616008 0.085989475 -0.447802 0.3772963 0.33167 -0.20707956 -0.15275526 0.32287765
0.3498127 0.25242501 -0.47877547 -0.16410998 0.6210659 -0.0005236705 0.08181307 -0.09696369
-0.2276461 0.24838872 0.28145847 -0.42584515 -0.19274266 -0.10583437 0.19598976 0.1762816
0.15971024 0.045805413 -0.13705975 0.116999514 -0.11501615 0.4724345 0.30139 -0.580001
0.11140643 0.1704038 0.1326489 -0.07678393 0.24599703 0.14771488 -0.1069896 -0.4242161
0.3518089 0.43314 -0.1199615 0.30475825 -0.6107308 -0.14363636 0.114655785 0.050842497
-0.08784874 -0.28901482 0.24555054 0.09842017 -0.057099722 0.20932207 -0.014036768 0.12201423
0.020712271 -0.069609374 0.42314595 -0.21473281 0.021751862 0.050016847 -0.22641152 -0.1700326
-0.0851436 0.24431989 0.5765932 0.072513655 0.3947336 -0.08015536 -0.3467617 0.22899266
-0.13100651 -0.05583352 0.20072073 0.16407825 -0.3197082 0.11597191 0.3556221 0.11950547
-0.2507895 0.051454972 0.10084132 -0.22227296 0.28986868 -0.33958903 0.48580843 0.007604429
0.13225925 -0.11278754 0.08693125 0.44049627 -0.32050523 0.5319996 -0.19065088 0.07392898
-0.073951155 0.43446764 -0.04690586 0.09480013 -0.47875497 0.028851489 0.05107353 0.20345047
0.15072007 -0.24263339 -0.17464843 0.14334784 0.21398167 0.22145656 0.14373164 0.2636007
0.5592749 -0.27604043 0.0964701 -0.1919859 0.07753093 -0.0863688 -0.0600764 0.2214694
-0.21182497 0.27634555 -0.36057624 -0.15641585 0.0010107667 0.1791666 0.148803 0.3234281
0.04546846 0.119658574 0.44673532 0.4595603 -0.17031784 -0.23366445 0.06276685 -0.1852714
-0.26902318 -0.22949167 -0.1288357 0.0911843 0.0944086 0.12869585 -0.022974627 -0.6671987
-0.0327032 0.006827709 0.24131948 0.28224492 0.028249059 0.39101416 0.3887752 0.28643033
0.2560455 -0.18376027 0.07047475 0.059476513 0.5070733 0.04300519 -0.067737736 0.2716183
-0.3455377 -0.23718622 -0.04249385 0.24240972 0.2117445 0.18701662 0.0133963255 -0.1448902
0.101667024 0.42544362 0.3541103 0.23709749 -0.030673591 -0.1266046 -0.48565543 -0.14199209
0.39978632 -0.01734753 -0.095107995 0.020010479 0.045225713 0.014635893 0.3441073 -0.23132828
0.34611428 -0.31917858 0.1287971 0.0048823897 -0.16242564 -0.44621885 0.38592136 -0.054833435
0.15854844 0.3749797 0.11375942 0.16633978 -0.19685778 0.1892498 0.07782634 -0.28186902

decoder.0.bias f4 [16]
00000000: 5ba8 573e 7f67 12bf 9279 47bd 6f4c f63e
00000010: d35d 353e c9f1 b13e d8b5 a73d 0337 87be
00000020: 7512 3d3e e1f2 44be c5e7 0dbf 71d8 4a3d
00000030: ef9b 403e f61b 18be 1022 a1be ac0b 24bd
0.21060316 -0.5718917 -0.048699923 0.4810519 0.17711572 0.3475478 0.08188981 -0.26409158
0.18464072 -0.19233276 -0.5543178 0.04952282 0.18809484 -0.14854416 -0.314713 -0.040050194

decoder.3.weight f4 [29, 16]
00000000: ec4a 8d3e 1833 fdbe fe4e c7bc 8ba6 babe
00000010: 00d6 683e 9757 1c3f 8ecb 153e 53b2 473e
00000020: 2213 e73d 515c 8ebe 51a4 ddbd 42f1 f7bd
00000030: 06a3 73be a368 fabe 85e6 41bf 096e e6be
00000040: f880 0fbf b8d1 fabd 6d35 42be 7ce2 bd3d
00000050: edd8 64be 5077 11bd d36d a33d 6ca8 13bd
00000060: a5e9 f3bd 8818 10be 67aa 043e 3e05 00bf
00000070: d1c0 dc3c a391 7e3e 969c b33d 2ce1 233e
00000080: 92e1 b33d d48e 383d 50b8 80be 77fd 063f
00000090: ef5e c1be 2af2 8bbe 8e7a b93e 85f7 36be
000000a0: 1891 c2be 2cd2 06be fd89 7dbe 124a 6a3e
000000b0: e2d8 c4bc c526 cd3c 035d bc3e 17ee cf3d
000000c0: c759 29be 5a30 dabc 5398 7c3e fc56 2cbf
000000d0: 256e 383e fe34 18bd ab39 c23e 4020 d03d
000000e0: 5178 563e e19f 173f 4f9d 8bbe 3697 19bf
000000f0: 5161 993e 1d16 5abf d644 ab3e e61a 39bd
00000100: 8538 bcbe 73e0 7bbe 572a a43e cade 04be
00000110: 2792 f9bd 2f39 bbbe 2429 f0be eaa9 8dbe
00000120: 26b5 4b3f b7a7 3cbe 4e4b e93c 8f2e 5abe
00000130: 7ee8 bbbe aded bfbd 2d5c 7d3f cf20 0d3f
00000140: 0ab6 3c3e 971e 1fbf ef7b 9ebd eb22 d1be
00000150: 85cc c13d 9def 3a3f 8a4d 163f 8cd6 b83e
00000160: e65b b2be c9ee babe a08e 693f 3070 18bf
00000170: 34f2 993d 2e64 ca3c f656 00bf 34f3 623f
00000180: 0d13 dcbe 9113 d03e d4ca 49bd 888f d2bd
00000190: 1094 c03c c2fe f13e 8e21 69be a0d5 cfbc
000001a0: c321 84be a123 de3e dd6a 0e3f c897 0abe
000001b0: 7073 b73e 20a9 7d3d 50af d4be 8843 b8be
000001c0: 8d24 cc3d 3839 02be 9ea2 473d 8a54 12be
000001d0: 0c92 27bd 6a9b bf3d 4806 a23e b46a 6abe
000001e0: f3c0 22ba 581e a0be 4b3e 9a3c cf0d c03c
000001f0: a2b5 37be f4e1 33bc 09c4 3d3e 69b2 113e
00000200: 427d f1bd 3ccc 8a3f 82eb 183f e341 94be
00000210: 0750 bc3e 3cab 5abe 5af5 873e 815d b63e
00000220: 7023 fdbd 7dfa fdbe 8c16 4abf 7a67 8fbd
00000230: bb46 19bf 76d2 873e 6ab0 c4be c6ca 253f
00000240: abc2 763e b166 4cbf 8636 18be 4a65 603e
00000250: 56f1 9c3d 1fa4 bbbe 1f7c 853c 6da3 133e
00000260: 9dea 8f3c 9067 8f3e e881 aebe 25b4 31be
00000270: 3763 e13e 040b 0a3e fe93 a13e 34f4 8b3e
00000280: cc2c ee3e 50a7 cb3e c859 d43d 5e30 ef3e
00000290: 97f2 febe 5891 513e f080 813e 7435 1c3c
000002a0: 281c 05bf 7d7c d0be df27 0dbf 31b3 91be
000002b0: 861b 223f 7188 43bf 22b2 a43e 139d eb3e
000002c0: c81d f03e 0c0b 113e 6080 573e 9b6f 58bf
000002d0: b8b1 d1be 5e6a 86be a440 bcbe a2ce 503d
000002e0: d965 18bf 6241 ea3e 0e28 c0be e12e 05bf
000002f0: 2937 8d3e 7ca5 bd3e ade4 7fbd b5c8 6a3e
00000300: 8bf8 ce3d 4cf5 32be cfa4 313d be7c 0d3f
00000310: baf8 60bf 5d98 0f3f a3a9 d2bd f5de 293f
00000320: 8b74 0a3f c124 683f 7a30 c3be a6c5 5fbf
00000330: 7b95 10bf e93a 8c3e ad26 44be 08b3 30be
00000340: 0804 b5be 22a7 2a3c c667 203e ddf6 ae3d
00000350: 7e12 533d 1d46 cf3e 1368 403d d573 bfbc
00000360: 57b5 de3e e6a9 51be 2b19 0fbe f3ec c93d
00000370: f2a7 5c3e e0a7 50bf 836a 9a3e 5e5d f7bd
00000380: ab15 053e cf56 b13e 1666 2abf 6c2f 473e
00000390: 711f e33e add8 d33e 1f12 1abf 3db3 bcbe
000003a0: a709 243e 62e5 563e b2fe 7fbd 8a7f 4dbe
000003b0: af99 72be 6b22 c7be 3f8b d53e f3a2 043f
000003c0: 93f6 d4be c6f2 953e 6aab 51be f5d2 353f
000003d0: 5d96 babd 1d0c 993e c216 223e fb10 cbbe
000003e0: 8a39 18bf 3c9d 173e 30ed e13e 208b 14be
000003f0: fd8c 68bd 51c3 64be bde4 dbbd f070 673e
0.27596223 -0.49453044 -0.024329659 -0.36455187 0.22737885 0.6107115 0.14628431 0.19501619
0.11282946 -0.27804807 -0.108223565 -0.12106563 -0.23792657 -0.48907956 -0.7574237 -0.45005825
-0.56056166 -0.12247032 -0.18965693 0.09271714 -0.22348376 -0.035514176 0.07979932 -0.03604929
-0.119097985 -0.14071858 0.12955628 -0.50008 0.02694741 0.24860243 0.08770101 0.16003865
0.087832585 0.045058087 -0.2514062 0.52730507 -0.3776774 -0.27333194 0.36226314 -0.17867859
-0.38001323 -0.13166112 -0.2475967 0.22879818 -0.024029199 0.0250429 0.36789712 0.10152834
-0.16538154 -0.026634384 0.24667482 -0.6732023 0.18010767 -0.037159912 0.37934622 0.10162401
0.20944335 0.5922833 -0.27268454 -0.59996355 0.2995706 -0.8518999 0.33450955 -0.045191668
-0.3676187 -0.2459734 0.32063553 -0.12975612 -0.121860795 -0.36567065 -0.46906388 -0.27668697
0.79573286 -0.18423353 0.02847829 -0.21306823 -0.36700815 -0.09371505 0.98968774 0.55128187
0.18428817 -0.6215605 -0.07738482 -0.40846953 0.09462837 0.7302187 0.58712065 0.36101186
-0.34835738 -0.36510304 0.91233253 -0.59546185 0.075169 0.024705973 -0.5013269 0.8865235
-0.42983285 0.40639928 -0.049265698 -0.10281283 0.023508102 0.47264677 -0.22766706 -0.025370419
-0.25807008 0.43386558 0.5563181 -0.13534462 0.3583026 0.06192887 -0.41540003 -0.35989022
0.09967909 -0.1271714 0.04873907 -0.14290062 -0.040910766 0.09355815 0.31645417 -0.22892267
-0.0006208561 -0.3127315 0.018828532 0.023444084 -0.17940381 -0.010979164 0.18531813 0.14228214
-0.11791469 1.0843577 0.59734356 -0.28956518 0.36779806 -0.21354383 0.26554376 0.35618213
-0.12360275 -0.4960517 -0.78940654 -0.070021585 -0.5987355 0.26527756 -0.38415843 0.6476253
0.24097697 -0.79844195 -0.14864549 0.21913639 0.07663219 -0.36648652 0.016294537 0.1441781
0.017567927 0.280087 -0.34083486 -0.17353876 0.44021007 0.13480765 0.31558222 0.2733475
0.46518552 0.39776087 0.10368687 0.4671659 -0.49794456 0.204656 0.25293684 0.009534229
-0.5199609 -0.40719977 -0.55138963 -0.28457025 0.6332325 -0.7638007 0.32167155 0.46018276
0.4689772 0.1416437 0.21045065 -0.84545296 -0.409559 -0.26253027 -0.36768067 0.05097831
-0.5953041 0.45753008 -0.3753056 -0.52024657 0.27581146 0.37040317 -0.06247394 0.22928126
0.101059996 -0.17476386 0.043370064 0.55268466 -0.87879527 0.5609186 -0.10286262 0.6635583
0.5408408 0.9068108 -0.38122922 -0.8741096 -0.5647809 0.27388695 -0.19155379 -0.17255795
-0.35354638 0.010415824 0.15664586 0.08543179 0.051531307 0.4048318 0.046974253 -0.023370663
0.43497726 -0.20474967 -0.13974445 0.098596476 0.21548441 -0.81506157 0.30159387 -0.12078355
0.12996547 0.34636542 -0.6656202 0.19451684 0.44359925 0.41376248 -0.601839 -0.36855498
0.16019307 0.2098594 -0.062498756 -0.20068184 -0.23691438 -0.38893446 0.417078 0.5181114
-0.4159437 0.29286784 -0.20475546 0.7102502 -0.09110711 0.29892054 0.15828994 -0.39661393
-0.594628 0.14806074 0.44126272 -0.14506197 -0.056775082 -0.22340132 -0.10736988 0.22601676

decoder.3.bias f4 [29]
00000000: e1f4 f53f 98ae ac3f 0d9c 263e b826 363d
00000010: e8f6 943e 3ab2 7fbf e494 8bbe dbfe 033e
00000020: 6b48 0fbf 1de5 04bf 6a46 2cbf 1762 903f
00000030: a389 bbbe c729 83be 9042 15bf a515 643e
00000040: 7ce8 f5be 1c5a fd3d c469 8c3f 7440 163f
00000050: ed37 953e bf71 b3be 98fd 3c3f 8d80 c33e
00000060: 3de5 66be e234 e63e 5bda b8be 18fa 853e
00000070: 711c c1bf
1.9215356 1.3490782 0.16270466 0.04447052 0.29094625 -0.9988133 -0.27262032 0.12890188
-0.55969876 -0.519121 -0.67294943 1.1279935 -0.36628446 -0.2561781 -0.5830469 0.22273882
-0.48028934 0.123707026 1.0969777 0.586921 0.2914423 -0.3504772 0.73824453 0.38184014
-0.22548385 0.4496222 -0.36104092 0.2616737 -1.5086805
