nslkdd_model.pth (torch, 10172 bytes, 8 tensors)

encoder.0.weight f4 [16, 42]
000000 1d 53 77 bd 5e b5 6a 3e 04 c4 fb bd 5b c5 c1 bc
       -0.060381997 0.22920749 -0.122932464 -0.023653677
000010 8c 7a cf 3c c1 77 a7 be 00 8c 30 be 67 55 b3 bf
       0.02532699 -0.32708552 -0.17240906 -1.4010438
000020 0e f0 0f bd 83 07 3d be 81 ca d9 3d 94 d0 ba be
       -0.035141043 -0.18459897 0.10634328 -0.36487257
000030 f3 16 02 be a4 d7 5e bf 51 99 11 bf 91 2f ef 3d
       -0.12704067 -0.8704779 -0.5687457 0.116789944
000040 2a 19 d9 3e e8 c1 b9 bf 44 0e 7b be 3d 40 31 bd
       0.4240201 -1.45123 -0.2451716 -0.043274153
000050 11 ee 9d bf f5 7e b4 bf b7 52 fc 3b 83 5f e9 bd
       -1.2338277 -1.4101244 0.00770029 -0.113951705
000060 7e d1 17 be 7e 5a fb bd 42 24 20 3e 1a ac 56 3e
       -0.14826009 -0.122731194 0.15638831 0.20964089
000070 50 39 39 3e b8 bc 22 bd 06 66 cf 3e 27 8a fb 3d
       0.18088269 -0.039730757 0.40507525 0.1228221
000080 50 98 72 3d 77 11 3a 3d 45 a7 a0 3e 94 ec e6 3e
       0.059227288 0.045426812 0.31377617 0.4510237
000090 df 02 81 3e 4e 63 bf bc 1d ec 0d bd 73 54 84 3e
       0.25197503 -0.023362782 -0.034649003 0.2584568
0000a0 6b 71 7f 3e c9 7b e2 3c 2e 36 9a bc 23 5c 3f bc
       0.2494561 0.027646916 -0.018824663 -0.011679682
0000b0 a7 1a 08 3e 02 7e 4f 3d a5 6b 8a bc 58 b8 27 bf
       0.13291417 0.05065728 -0.016897032 -0.6551566
0000c0 66 00 8b bf 82 26 9b bf 40 c5 88 bf ce 87 2f bd
       -1.0859497 -1.2121127 -1.0685196 -0.042854123
0000d0 c5 cb cd be 55 3a ac 3d 07 0a 80 be 10 d0 0b bf
       -0.40194526 0.084095635 -0.2500765 -0.54614353
0000e0 fd f3 ef be cc 14 39 3a a6 59 04 3f be 97 82 bf
       -0.46865836 0.0007060289 0.5169929 -1.0202558
0000f0 5f 58 04 bd 1e 09 e5 3d f9 02 92 bf 41 b6 af bf
       -0.03231084 0.111833796 -1.1407157 -1.3727494
000100 96 27 0b be 93 a8 16 3d 42 05 c2 39 09 49 64 bc
       -0.1358932 0.03678186 0.0003700648 -0.013933429
000110 4f c6 84 3d 8c 15 73 3d 54 aa bf bd 9b 2b 9c 3e
       0.06483137 0.05934672 -0.093586594 0.30502018
000120 7f 6f 23 3f f8 34 b6 bd 64 2d 2b be 51 81 05 be
       0.63842005 -0.08896822 -0.16716534 -0.13037612
000130 7e ce 68 bd 5b dc fa bc 4d a7 b0 bd 04 f7 80 3d
       -0.05683755 -0.030622652 -0.0862566 0.062971145
000140 f3 b3 5b bd 2e 4d 2a be cb 06 bc 3c b9 5d 06 be
       -0.05363841 -0.16631004 0.022952458 -0.1312169
000150 b4 ec 2a 3e 05 94 7e be ae 7d 18 3e 30 63 13 be
       0.16691858 -0.24861152 0.14891693 -0.14393306
000160 24 f5 00 3e b3 40 b2 3e 97 cd 0e c0 3e 98 17 c0
       0.12593514 0.34814987 -2.2312982 -2.3686671
000170 ef 94 f2 bd de d9 8a 3e 15 90 a5 be 59 8d 5d 3d
       -0.11844813 0.27119344 -0.32336488 0.054089878
000180 73 d4 07 be 27 2c 17 c0 f8 67 13 c0 04 1e 9f bd
       -0.13264637 -2.3620698 -2.3032207 -0.07769397
000190 f2 4f 24 be 0f 50 10 c0 ac 05 85 bf 05 94 49 3d
       -0.16046122 -2.2548864 -1.0392356 0.049213428
0001a0 0f 70 10 c0 6b af 17 c0 8c f4 40 be da 94 cf bd
       -2.2568395 -2.3700817 -0.18843287 -0.10135813
0001b0 42 3d 0b 3e 33 3c 56 bc 8f 27 d0 3d 3b 37 ec 3d
       0.13597587 -0.013075876 0.10163795 0.11533972
0001c0 a7 80 7c 3c 4e 84 3d 3e 12 7f 27 be e0 61 2a be
       0.0154115325 0.18507501 -0.16357067 -0.16638899
0001d0 05 ba 68 be d9 37 38 be ff b4 3e 3e 1e de 31 3e
       -0.22727211 -0.17990054 0.18623732 0.17369887
0001e0 70 45 76 3e 44 2e 36 bd 0f 12 73 be f2 f6 3a 3e
       0.24049926 -0.044477716 -0.23737358 0.18258265
0001f0 e3 8f c1 3d e8 dc b1 bd 42 aa 05 3d 94 c8 d4 3d
       0.09451272 -0.08684713 0.032633074 0.1038982
000200 a3 bd 25 be 62 31 73 be ce e3 17 be 92 dd e5 3e
       -0.16185622 -0.23749307 -0.14832994 0.44895607
000210 eb 3a 7c bf 93 57 38 bf d9 2b 6b bf bb 73 15 be
       -0.985274 -0.7200863 -0.9186378 -0.14594929
000220 16 1b 65 bf 7e 72 22 bf 3a 17 83 be 21 32 28 be
       -0.89494455 -0.6345595 -0.25603658 -0.16425373
000230 35 2a a3 bd e9 c6 16 bd 66 d3 86 ba 50 e2 7f bf
       -0.07967035 -0.03681079 -0.001028639 -0.999547
000240 bd 80 8c bf 00 89 7a bd a8 75 4a bf ed 62 52 bf
       -1.0976788 -0.06116581 -0.7908578 -0.821822
000250 28 40 85 3e 3f af cb 3e 2a 05 ce 3d dc 97 10 3d
       0.2602551 0.3978214 0.10059579 0.035301074
000260 3c 96 98 be 03 98 a9 bf a6 6f 95 bd d6 e8 6c 3c
       -0.2980212 -1.3249515 -0.07296686 0.014459809
000270 43 32 c6 3d 4e 19 ad 3e 2f f9 5f 3c a5 56 e0 bc
       0.096775554 0.33808368 0.01367025 -0.027385065
000280 45 9b 9d 3d 9b 1a b9 3d 7c d7 0b bd 8c d6 4a 3d
       0.07695631 0.09038278 -0.03414105 0.049521014
000290 6b 7e 12 bc 63 02 15 bf 19 b1 24 bf 1a 27 d5 bd
       -0.008941273 -0.58206767 -0.6433273 -0.10407849
0002a0 11 dc ce 3c 64 58 48 3e 80 03 e3 3d 1f 56 b8 3d
       0.02525142 0.19564968 0.11084652 0.09000801
0002b0 e2 18 d7 3c d8 8e 75 be ca 32 73 bf 06 5d 87 bf
       0.026256982 -0.23980272 -0.9499937 -1.0575264
0002c0 47 4d 7f bf bf 08 19 bb f7 eb 26 bf 7e 84 72 3d
       -0.9972729 -0.002335116 -0.65203804 0.059208386
0002d0 66 84 17 3d b3 2f bc bd 2a 7a 80 3d f6 f0 da bb
       0.0369915 -0.091887854 0.06273301 -0.006681557
0002e0 23 48 0d bf 76 9b 71 bf bc 72 2f 3f f3 a7 ce 3d
       -0.55188197 -0.9437784 0.68534446 0.100906275
0002f0 ea 26 6f bf dc 11 53 bf e9 e2 25 be ae bd 1e 3c
       -0.93418753 -0.82449126 -0.1619984 0.009688778
000300 d7 75 7b 3c 89 c7 26 be 63 2c 34 3d 43 af 33 3d
       0.015347919 -0.16287054 0.043987643 0.043868314
000310 eb ad 5a 3d dc ad 73 bd a0 f5 89 3f 17 7b 8e bd
       0.053388517 -0.059491977 1.0778084 -0.06957071
000320 23 a9 23 3e f2 df 92 3d fb 1a aa 3a 99 03 86 3b
       0.1598249 0.071716204 0.0012978012 0.0040897843
000330 26 79 06 3e b4 34 c3 bd 18 60 21 be 90 44 1f be
       0.13132152 -0.09531537 -0.15759313 -0.15553498
000340 5f c4 0f 3d 2e 16 3d 3d 4c b7 de bc e1 73 c0 bc
       0.035099383 0.04616373 -0.027187012 -0.023492755
000350 67 54 90 3b df 0e 4d bb 76 46 ac 3c 1e 26 aa be
       0.004404593 -0.0031289381 0.021029692 -0.33232206
000360 d4 c1 93 be 19 30 d2 be f0 9a 7c bf 4f d9 88 3d
       -0.28858817 -0.4105232 -0.98673916 0.06682073
000370 3b ba 0c 3f 0e ca 74 bd d6 f1 f5 bd ce d7 9b bd
       0.54971665 -0.059763007 -0.12009017 -0.07609521
000380 bf ec 8c 3e a9 20 8b bd 9c 9d 33 be 35 b9 b2 be
       0.27524373 -0.06793339 -0.17540592 -0.34906927
000390 59 62 64 be 6f 7c d6 3d 98 4e 94 be e2 7e 0b be
       -0.22303142 0.104729526 -0.28966212 -0.1362262
0003a0 47 f3 be bd ec 70 86 3a ba 2a 83 3c d9 14 cd bd
       -0.09323745 0.0010257042 0.016011585 -0.10013742
0003b0 85 72 14 3e d8 d7 33 3e 22 9e e0 3d cd 79 fb 3d
       0.1449681 0.17562807 0.109676614 0.12279091
0003c0 81 bb 55 3e d6 ba 88 3c 14 a2 66 3d 37 1d 36 3c
       0.20872308 0.016690653 0.056306913 0.011115364
0003d0 15 c6 16 3d 91 64 4d bc 8c b3 a2 3d f5 eb 80 bd
       0.03681 -0.012536184 0.07944402 -0.06295005
0003e0 a1 b3 0e be 99 43 a9 3c 37 68 f4 3d 11 d9 1e be
       -0.1393571 0.020662116 0.1193394 -0.15512492
0003f0 7a 4e 81 3d 23 cf 6e 3a 5d 7f eb 3d 0f f2 1f be
       0.06313796 0.0009109845 0.11498902 -0.15619682

encoder.0.bias f4 [16]
000000 5d 41 b0 3f 76 c6 69 3f 7e 05 07 40 a3 23 49 3f
       1.3769947 0.9131845 2.1097102 0.7857
000010 96 8e 76 3f f8 e8 75 3e 2c 2e 8d 3f 03 6c a6 bf
       0.9631132 0.24014652 1.1029716 -1.3001713
000020 94 42 07 3f b9 6f e6 3e 49 38 a1 3f ea 3a 35 3f
       0.52835965 0.45007113 1.2595302 0.7079302
000030 00 b8 58 3f 72 2e 60 3f 80 67 0d 3f 18 21 5f c0
       0.8465576 0.8757087 0.55236053 -3.486395

encoder.3.weight f4 [8, 16]
000000 a9 16 23 3c 17 b6 5d bc 41 67 34 bd ca 9b 21 bd
       0.009954133 -0.013532183 -0.044043783 -0.039455213
000010 9c 85 ce bd fd ca 16 be 08 42 05 3e 90 7f db be
       -0.10084078 -0.14725871 0.1301347 -0.4287076
000020 21 07 2a 3f 9c 35 21 3e db c1 da bb b6 2e c3 3e
       0.6641713 0.15743107 -0.0066759414 0.38121575
000030 f2 41 8d 3e d9 78 13 bd 38 2f 88 be 0f e1 c2 3d
       0.27589375 -0.03600392 -0.26598525 0.09515583
000040 d8 a8 2c 3e 03 65 1b 3f 66 2e 17 bc 36 69 f2 bd
       0.16861284 0.60701007 -0.009227371 -0.11836474
000050 71 35 06 bf 18 b3 fa be 98 6c 0e 3c 4d 9b a0 3e
       -0.52425295 -0.48964763 0.008692883 0.31368485
000060 b3 19 29 3f 20 aa 82 3e a7 17 a2 bd df dd ef be
       0.6605484 0.2552042 -0.079146676 -0.46848962
000070 3b d0 09 be b1 76 fb bd 36 a3 53 3e cb 92 53 3e
       -0.1345834 -0.12278498 0.20667729 0.20661466
000080 dd 07 c7 3e d1 71 42 3f e5 a6 f5 3e 8c 15 e7 bc
       0.38873187 0.7595492 0.47978893 -0.028208517
000090 1b f5 88 be 8a 76 e9 be cd 43 3e be a5 a8 31 3b
       -0.267495 -0.4559825 -0.18580551 0.0027108577
0000a0 f5 5d 71 3e c6 25 87 be 39 76 4b 3d a4 cd d8 bd
       0.23570998 -0.26396006 0.049673293 -0.10586098
0000b0 9e 21 d1 be 23 c1 f3 3e 2f 3c 0e be bc b2 2d 3e
       -0.4084596 0.4760829 -0.13890146 0.16962713
0000c0 fa 04 1a be 7d a5 7f 3e 23 0a 54 3d 53 3b 49 bd
       -0.15040961 0.24965473 0.05176748 -0.04912884
0000d0 0d 3e 87 be 80 ee 98 3d e2 92 cb 3c 46 c9 8a 3e
       -0.26414528 0.07467365 0.024850313 0.27106684
0000e0 3d 33 f2 3e e0 39 24 bf 09 f3 fa 3e 1a 2c 8f 3e
       0.47304717 -0.6415081 0.49013546 0.27963334
0000f0 b3 5e 01 be 57 1c 6c bc b0 77 34 3d 2f 87 83 3d
       -0.12633781 -0.014411054 0.044059455 0.064222686
000100 20 8c 3f 3e 7d 26 8e 3e 68 43 40 3e ec 58 a9 3e
       0.18705797 0.2776374 0.18775713 0.33075655
000110 07 08 a9 3e 9a 5f 63 bf 2a ae a9 be 54 5a 4d be
       0.33013937 -0.8881775 -0.3314069 -0.20053989
000120 bc b6 a3 bd 3b c5 bc be 48 fe 3a 3e 04 21 d5 3e
       -0.07993838 -0.36869225 0.18261063 0.4162675
000130 e7 df fd be 0b ba fb 3d 09 73 cf 3e 49 31 36 3d
       -0.49584886 0.12291344 0.40517452 0.044480596
000140 15 76 2d 3c 46 67 ca 3e 3d c9 87 3d f3 d3 c5 bd
       0.010587235 0.39531916 0.0663018 -0.09659567
000150 c7 fb f4 3e b6 40 8a 3d 3b 01 24 3f ca 0c 41 3e
       0.4784834 0.06750624 0.6406438 0.18852535
000160 b4 b3 3b 3f 80 f5 f2 bd d7 d9 07 bd 43 a6 5b bd
       0.7332108 -0.11863232 -0.033166733 -0.053625356
000170 94 f4 96 bc 80 6e 8a be c1 b1 9f be 9e 5b 0c 3e
       -0.01842717 -0.2703743 -0.31190303 0.13706824
000180 a9 d5 8b 3e 50 d0 4d 3e 4e be 38 3f ca 1b 3d be
       0.27311447 0.20098996 0.7216538 -0.18467632
000190 58 16 8a 3c 7e 02 ec be db 06 a8 be dc 23 1e 3d
       0.016856357 -0.4609565 -0.3281773 0.038608417
0001a0 be fa 8e bd f8 0e a6 be 31 bf 97 bc d0 31 ac be
       -0.06981419 -0.32433295 -0.018523784 -0.33631754
0001b0 a6 88 50 be 58 03 ef bc 74 e5 ed bc 89 89 19 3e
       -0.20364627 -0.0291764 -0.029040076 0.14993872
0001c0 45 b1 72 bd 88 89 a4 bd 23 b9 9a bf 7a d4 a4 be
       -0.05925109 -0.080340445 -1.2087749 -0.32193357
0001d0 62 6d 6d 3e 79 60 6e be 72 6c 7a 3d e2 66 96 3e
       0.23186257 -0.23278989 0.061138578 0.29375368
0001e0 a2 5d 49 bf c9 1b 00 bd fa 66 96 3d ec a2 01 bd
       -0.786585 -0.031276498 0.0734386 -0.031649515
0001f0 66 9b 18 3f e8 fd c9 3d f9 da 9d be cb 55 1b be
       0.5961212 0.09862882 -0.30831125 -0.15169446

encoder.3.bias f4 [8]
000000 5b ba b6 3d 11 f4 17 bf 78 7d 0d 3f ad e1 85 3e
       0.08922263 -0.5935679 0.55269575 0.2614874
000010 05 4d 4b 3f 1d fc 12 be 02 2e 86 3f 3f df ac 3e
       0.794144 -0.14353986 1.048279 0.33764073

decoder.0.weight f4 [16, 8]
000000 58 93 9e bf 3b 7f a8 3e ba 7b f8 3e bc 1b 8b 3e
       -1.2388716 0.3290957 0.48531896 0.27169597
000010 14 49 03 3e e8 5c 84 bc 64 5f c7 b9 f4 1d c5 bc
       0.12820846 -0.016157582 -0.0003802731 -0.024062134
000020 35 70 a9 be 9b a6 c7 bd e5 73 95 be 88 ed a4 be
       -0.3309342 -0.09748574 -0.29189983 -0.32212472
000030 6f 54 0f bd 5f be 0c be a3 a8 e5 bd 2f c2 64 be
       -0.03499263 -0.13744496 -0.112138055 -0.223397
000040 55 f3 31 be 63 24 e8 be b5 33 ac bf 7e 24 52 3d
       -0.1737798 -0.4534026 -1.345328 0.051304333
000050 d2 92 30 bf 90 34 2f 3f d2 19 82 bf 41 e8 82 3b
       -0.6897403 0.6843958 -1.016413 0.003994972
000060 a0 ef d3 be 7b 2d 98 be 6c fc 2b 3e eb 7c de be
       -0.41393757 -0.297222 0.1679551 -0.4345468
000070 96 fe 9f 3e dc 2b dd bd c5 a2 bc be c1 26 09 bf
       0.3124892 -0.10799381 -0.36842933 -0.5357476
000080 af 96 48 3e 47 6f 4f 3f 1f 7f 0a bf e0 7b 4a be
       0.19588731 0.8102917 -0.5410022 -0.19773817
000090 c1 aa 5f bd 5a 72 1a bf 54 c6 a5 3e 5e f6 48 be
       -0.054606203 -0.60330737 0.32377875 -0.19625232
0000a0 ed 6d e2 3d e4 3c 29 bf c2 f5 20 3f 3d a5 ab bf
       0.11056123 -0.66108537 0.62874997 -1.3409802
0000b0 55 02 37 be d9 af 93 bd e7 bd ec bd 92 6c fa bd
       -0.17871983 -0.07211275 -0.115596585 -0.122277394
0000c0 4e 2a 8d 3d ca 73 bf bf 23 38 6e 3f d8 bf 8b 3d
       0.068928346 -1.4957211 0.9305441 0.06823701
0000d0 af 23 a9 3e d1 04 d7 be 84 bd 03 3e 3c bb d6 3d
       0.33035037 -0.41995862 0.12865263 0.10484931
0000e0 14 7f 6d bf 29 a3 55 bf 1b 2a 07 3f 4e 2f df 3e
       -0.9277203 -0.8345209 0.5279862 0.43590778
0000f0 9d 76 9b bd 13 9c 91 3e bb ff 6b be 0c 50 f2 be
       -0.07590983 0.28439388 -0.23046772 -0.47326696
000100 e4 d1 90 be eb a0 a5 3e b3 6a 8a 3e 50 1b 0e be
       -0.28285134 0.32349333 0.2703453 -0.13877606
000110 15 fd 1f 3e 2d 82 bf 3e 53 7b f7 3c b1 41 e2 3e
       0.15623887 0.37404004 0.030210173 0.44190744
000120 9a d3 a1 be d3 fd 5e be 9f 74 a6 be f2 c1 83 be
       -0.31606752 -0.21776514 -0.3251085 -0.25733906
000130 9a 46 27 bd 93 57 87 bd e0 97 c1 bd 9f 1d 06 bd
       -0.040838815 -0.066085 -0.09452796 -0.032743093
000140 16 cb 12 3f a2 00 42 bf fb 76 8c 3e ec 0e b7 3c
       0.57341135 -0.75782216 0.27434525 0.022345982
000150 b5 fe eb 3e 21 76 81 3d 70 6a 82 be a4 79 a0 be
       0.46092764 0.063213594 -0.2547183 -0.31342804
000160 e3 85 86 3e 26 29 a8 3e b5 ab 75 be c3 4a 44 3f
       0.26274022 0.32843894 -0.23991282 0.7667658
000170 f9 1a 85 3e ce 4a ac be 72 6c d5 be c9 63 be be
       0.2599714 -0.3365082 -0.416843 -0.37185505
000180 c6 69 0b 3f ff 0e ec bd ca 91 96 3d be b7 9d 3d
       0.5445827 -0.11526298 0.07352026 0.07701062
000190 74 9d 44 bf 94 39 79 3e 9b e5 bc bf 9f 36 ad be
       -0.76802754 0.2433837 -1.475757 -0.33830735
0001a0 90 f3 05 3f c9 70 59 bf dc dd d7 bf 07 df 1e 3f
       0.5232477 -0.8493772 -1.6864581 0.6205906
0001b0 e4 76 98 be 8b 02 de 3c 1d 37 3a 3f b6 04 bb 3e
       -0.29778206 0.027100822 0.72740346 0.36527032
0001c0 59 e1 47 bf 1e 5e 0f bf d4 a9 8e 3e 51 9b 0b bd
       -0.7807823 -0.56002986 0.27863944 -0.03408367
0001d0 bb 8e 52 bf 93 de 96 3e b6 66 ac 3e ce 14 04 c0
       -0.8224904 0.29466686 0.33672112 -2.0637698
0001e0 88 9e 49 be b0 a3 d5 be 49 f0 9e 3d 49 db f6 be
       -0.19689381 -0.41726446 0.077606745 -0.48214176
0001f0 f1 9c 67 3e 4e 72 4f bc cf 5b d2 3e 6b df ac bf
       0.22618462 -0.01266153 0.4108567 -1.3505682

decoder.0.bias f4 [16]
000000 6d 2e 6a bd dd 2d b7 bd ee 6b 20 3d a0 05 17 3f
       -0.05717318 -0.089442946 0.03916543 0.5899296
000010 da 82 47 3f 89 84 19 3f 23 1a 68 bf d2 09 fb bc
       0.7793404 0.5996786 -0.9066488 -0.030644331
000020 7f c3 42 bc 11 39 d6 be 50 65 bc be 11 70 c3 bf
       -0.01188743 -0.41840413 -0.36796045 -1.5268575
000030 38 3b 03 bd a3 2a fe bf b1 f1 dd 3e 9e 0f 40 bf
       -0.032038897 -1.9856762 0.43348458 -0.7502383

decoder.3.weight f4 [42, 16]
000000 f0 fe 97 3e 6e 4e 5d 3e 6b b4 f9 3d f4 b6 05 be
       0.2968669 0.2161195 0.12192615 -0.13058072
000010 59 e1 d0 3c 4c 5e cb be 0e 5f f9 bd d7 8c e7 bd
       0.02549808 -0.3972038 -0.12176333 -0.1130616
000020 11 64 b0 bd 13 ad 5d be 14 26 89 3d 40 87 1b bd
       -0.08612836 -0.21648054 0.06696716 -0.03797078
000030 e7 41 16 3d f9 15 4e 3b 70 3b 1a 3e 7c 4e 66 3f
       0.036683943 0.0031446202 0.15061736 0.8996351
000040 dc 8c 8c bd e6 a9 23 be 59 bf ae bd fd 9f 0e 40
       -0.06862804 -0.1598278 -0.085325904 2.228515
000050 ad 35 bc ba 71 16 dc be 70 04 52 be 60 75 77 bd
       -0.0014359258 -0.4298587 -0.20509505 -0.060414672
000060 7c c4 a9 3d 5b 31 bf be be 32 31 3d 31 7e ea b9
       0.082894295 -0.37342343 0.043261282 -0.00044725978
000070 95 9e d4 bc c8 6d 9a 3d c0 7f 42 3e ea 2d 77 3f
       -0.025954524 0.0754047 0.18994045 0.96554434
000080 9c 74 f0 3d 02 46 62 3e 1c 80 87 3d 54 a7 80 bf
       0.117409915 0.22097018 0.06616232 -1.0051064
000090 6f a5 0a bc 23 61 14 bf 12 bc 5f 3d d6 e7 c0 3e
       -0.008462294 -0.5796072 0.054622717 0.37676877
0000a0 69 d8 18 bc c5 a5 40 3d 6b 5c 2b 3e 4a a6 ce bd
       -0.00932894 0.04703309 0.16734473 -0.10090311
0000b0 ce f1 cb 3d 7b 8b c5 bd 95 89 3d be 95 a2 ec 3e
       0.0995823 -0.096457444 -0.18509515 0.4621779
0000c0 93 c5 1e 3d e0 9d fb 3d 08 c5 8b 3d 0e 88 58 bd
       0.03876264 0.12285972 0.0682469 -0.052864127
0000d0 d0 e3 ac 3a ca cf ea bc 5e e7 46 bd 12 5d 82 3b
       0.0013190452 -0.028663535 -0.048560493 0.00397838
0000e0 04 c0 5b bd 3a dc ef bd 2e b1 1b 3d df 75 e6 3c
       -0.053649917 -0.11711927 0.03801077 0.028132377
0000f0 5f 07 49 bc 09 59 84 bd 86 df c0 bf d0 17 f3 3d
       -0.012269824 -0.064622946 -1.5068214 0.11869776
000100 24 47 50 bd dc 25 50 3e 48 81 8f bd f7 34 f3 3c
       -0.050849095 0.20326942 -0.0700708 0.029688342
000110 3c 01 29 bc 3e f5 a0 bc bf 12 38 3d 2a 00 ee bc
       -0.010315236 -0.01964819 0.044939753 -0.029052813
000120 10 c7 74 3d 85 e7 0d be 78 98 18 bd 2c c0 24 bc
       0.059760153 -0.13857849 -0.03725478 -0.010055583
000130 46 9c 4c bc 94 f3 7d 3d 8c 0a 3c bc fc 29 14 bd
       -0.01248843 0.061999872 -0.011477124 -0.036172852
000140 28 a2 61 3d 70 8a 17 3e 41 88 99 3d 82 42 16 bd
       0.055086285 0.14798903 0.074966915 -0.03668452
000150 65 53 20 3c f6 76 b5 3c 20 8e 34 bd 7a bb d8 3c
       0.009785508 0.022151452 -0.044080853 0.026456583
000160 1f 70 85 bd e6 41 6f be af 04 24 3d 31 53 86 3c
       -0.06515526 -0.23364982 0.04004353 0.01639709
000170 a2 2d 4e 3c d7 88 85 bd 3c 87 3c 3c e3 52 2a 3d
       0.012584122 -0.06520241 0.011506852 0.041582953
000180 a1 7e 0c 3d 36 b3 7a be 06 d6 8d bb 7b d4 52 3e
       0.03430045 -0.24482426 -0.004328492 0.20588867
000190 64 bd 03 3c cf 82 11 3f 5f e7 84 3d ec a2 10 3e
       0.00804076 0.56840223 0.06489443 0.1412465
0001a0 19 6c c0 3c e4 47 7d 3e 5a 91 ee bd 88 fb d8 bb
       0.023489045 0.24734455 -0.11648817 -0.0066217817
0001b0 7e 36 ed 3a 9c 67 d9 3c 25 98 26 be 6d 27 28 bf
       0.0018097905 0.026538663 -0.16268976 -0.6568516
0001c0 31 ee 58 bd 40 8b 37 3c f9 43 98 bd 2d f2 07 3d
       -0.052961532 0.011202633 -0.0743484 0.03318994
0001d0 42 32 31 bc 49 71 94 bc 34 60 32 3d 48 19 e0 bc
       -0.010815205 -0.018120425 0.043548778 -0.027355805
0001e0 1e 49 81 3d c6 a6 4d 3e 5f ba 1d bd 07 6c 30 bc
       0.06312774 0.2008315 -0.038507815 -0.010767943
0001f0 99 cf 64 bc 07 ee 86 3d 9f 0a 40 bc bb af 2b bd
       -0.013965511 0.06588369 -0.011721282 -0.041915637
000200 7e 1d 8f 3d 44 ac 5a 3e 28 b3 81 3e a8 66 2d bf
       0.06988047 0.21354777 0.25331998 -0.67734766
000210 ea a3 88 be b4 69 bf be f5 74 45 3e bf 6a be bf
       -0.26687557 -0.37385333 0.19282897 -1.4876326
000220 e3 a7 83 bc 24 e2 2a be 3c 8b ab 3f 29 31 8e 3f
       -0.016071266 -0.16687828 1.3401866 1.1108752
000230 66 6c 82 bf b4 25 33 bd ad f9 54 3f 3a 6a 60 be
       -1.018933 -0.04373713 0.83193475 -0.21915522
000240 e4 47 9a 3c 34 67 01 3e ed 09 89 bd 9a 83 0c 3c
       0.018833108 0.12637025 -0.06691346 0.008576298
000250 ee 8e 93 3f 48 b5 c3 b9 6c cf bc 3c 2c c7 9e bd
       1.1527994 -0.00037328363 0.023048125 -0.07752833
000260 92 2d ba 3d dd a4 98 3e d8 6b d8 bc 95 9a 04 3d
       0.09090723 0.2981328 -0.026418611 0.032373983
000270 47 2f 0d bd fe e5 30 3d 27 e0 0b 3c 08 b2 ab bd
       -0.034468915 0.043188088 0.008537329 -0.08383566
000280 36 22 2b 3f 54 c9 99 bd da 02 e0 3e dd 41 52 3e
       0.66849077 -0.075091034 0.43752176 0.20532937
000290 45 c4 66 be 69 97 40 3f bb cd 43 bf fc f7 f5 3f
       -0.22535808 0.75231034 -0.76485795 1.9216304
0002a0 8f 6f 5c bf 78 24 6f 3e c5 47 55 bf 50 9d 6b 3f
       -0.86107725 0.23353755 -0.83312637 0.92036915
0002b0 cf ff 64 be 73 66 3f 3f e5 d8 37 bf 21 9d 11 3f
       -0.22363208 0.747657 -0.7181533 0.56880385
0002c0 89 93 a4 bd c0 48 74 be 85 53 cc bd fa f7 ed bf
       -0.080359526 -0.23855877 -0.099768676 -1.8591301
0002d0 f6 70 43 bd 39 39 4f 3d 8c 92 0d be 2a 62 29 be
       -0.04771515 0.05059168 -0.13825434 -0.16541353
0002e0 a7 5a b1 3d 52 5d 55 bd 88 37 c2 3b 08 7d cd 3b
       0.08659869 -0.05209095 0.00592703 0.0062710084
0002f0 d8 13 8a bd 61 c8 80 3d 01 1e 80 bf 8b 37 10 3d
       -0.06742066 0.06288219 -1.0009156 0.03520922
000300 07 ac 0f bf a0 2b 34 3c 4e 86 25 bf d4 ba d6 3e
       -0.5612187 0.010996729 -0.6465806 0.41939414
000310 8b 94 8e bc 80 8a 8f be d2 8a da 3e ca f6 28 be
       -0.017404815 -0.28035355 0.42684036 -0.16500393
000320 b4 a3 2b 3f 7e 6d 2e bd 34 87 0c bf 01 e1 e8 be
       0.67046666 -0.04258489 -0.54893804 -0.45484164
000330 e0 3b 6a bd a9 ae 95 3f 9e 5e 35 be 2b 44 84 be
       -0.057186007 1.1693927 -0.17711875 -0.25833258
000340 93 86 04 3f f6 33 25 be 9c 39 94 3e 08 64 eb be
       0.51767844 -0.16133103 0.28950202 -0.45974755
000350 4d 72 dc 3e 27 fe b9 3e df f6 c0 be f2 a6 43 bd
       0.43055955 0.36326715 -0.37688348 -0.047766633
000360 99 3a 16 bf a6 b5 81 bd 17 1e 34 3f 10 bb 3d bf
       -0.5868316 -0.06333475 0.70358413 -0.7411356
000370 9d cd 9f 3f 7e 07 de 3e 7f 9e 72 3e 2f 48 91 3d
       1.2484623 0.4336509 0.23693274 0.07093846
000380 72 1a c7 3e d4 40 68 3e 05 d6 71 3f 9f 19 c3 be
       0.38887364 0.2268098 0.9446719 -0.38105485
000390 36 b3 92 3e f7 19 dc bc 00 2b 99 be 11 10 e2 bc
       0.28652352 -0.02686785 -0.2991562 -0.027595552
0003a0 7f 3d ff be ac 71 52 bd 00 b1 0c 3f 6a d1 e9 be
       -0.49851605 -0.051377937 0.5495758 -0.45667583
0003b0 fe 33 40 3f b5 2a bf 3e 04 92 86 3e cb 1b c0 3e
       0.75079334 0.3733727 0.26283276 0.37521204
0003c0 9f 1e 0c bf 20 05 6b 3d e0 dd 15 bf 70 83 d1 3e
       -0.54734224 0.057377934 -0.5854168 0.4092059
0003d0 ad 9f 2a bc 88 d8 8c be 5a 88 d5 3e 44 2d 2c be
       -0.010414046 -0.2750895 0.4170559 -0.16814142
0003e0 f7 61 27 3f dd 59 62 3d b4 54 08 bf d1 d0 ec be
       0.6538386 0.05526148 -0.53254247 -0.46253064
0003f0 23 46 36 bd 0c 9e 93 3f 6b 18 2e be 81 91 72 be
       -0.04450048 1.1532607 -0.17001502 -0.23688318

decoder.3.bias f4 [42]
000000 90 f8 08 bd 2e d7 a4 be aa 15 bb be d6 87 49 3f
       -0.033440173 -0.3219542 -0.36539966 0.78722894
000010 c7 7b 38 bd 7f 8d 1b 3d 2a 4d 3b be ef f8 05 be
       -0.04503992 0.037976738 -0.18291155 -0.13083242
000020 96 1e 76 bf 76 62 23 be 87 a3 c0 3f 4c 91 ae 3f
       -0.9614042 -0.15955529 1.5049905 1.3638091
000030 c8 59 a4 be 39 ca 42 3d dc bd f4 3d f2 35 a3 be
       -0.32099748 0.047556136 0.11950275 -0.31877095
000040 0a 64 6e be db fa 9b be b0 06 4a be 2a 87 29 3d
       -0.2328035 -0.30464825 -0.19729114 0.041388668
000050 04 04 79 b8 13 f9 06 bd 76 bd 2c bf 13 2f 9f be
       -5.9369966e-05 -0.03295238 -0.67476594 -0.31090602
000060 be 92 2a bf 03 14 28 bf bd 23 c9 be 81 1f c0 be
       -0.6663016 -0.65655535 -0.3928508 -0.37524036
000070 43 db 5f 3f 33 2e 3f bf fe 50 8e bf 63 be 10 3f
       0.8744394 -0.7467987 -1.1118467 0.5654051
000080 d2 c1 96 3f 25 1c 5c 3f 4f 7b c3 be f9 2d 3b bf
       1.1777899 0.85980445 -0.38180014 -0.73117024
000090 ab 0c d5 be 01 28 0f bf 50 c6 23 bf 75 3e c7 be
       -0.41611227 -0.55920416 -0.63974476 -0.38914838
0000a0 da b0 ab be ac 7d 16 3f
       -0.33533365 0.5878551
